q_net.pt (torch, 10643 bytes, 4 tensors)

0.weight f4 [256, 4]
-5.3552127 -3.8026114 -3.511444 -4.08111 -0.15722348 0.010027394 -0.26984972 0.24858749
-0.29407826 -0.23696047 0.24457324 -0.42230344 -0.094186366 -0.41633755 -0.19979101 -0.42448956
0.61484015 0.22936338 -0.37939003 -0.04761447 -0.49598965 -0.0014292309 0.10722066 0.31077203
-0.14457151 -0.40710866 -0.32545012 -0.04313442 -2.6758857 -1.59678 -1.8788986 -2.0831137
-0.5892875 -0.098790705 -0.11037859 -0.7339492 0.15154782 -0.40144604 -0.31451184 -0.33773392
-0.4079896 0.024845041 0.24778053 -0.086785406 -0.7940767 -0.7580252 -0.5948314 -0.67877626
-0.3540521 -0.2790702 -0.33412358 0.14497173 -0.17039467 -0.3829322 -0.2698191 0.4036688
-0.26236752 -0.19257502 -0.66117597 -0.33254027 -1.6196404 -1.2607527 -1.2577875 -1.1004492
-5.570469 -4.128168 -4.032471 -3.9883285 -0.67836344 -0.7569795 -0.8876206 -1.0836246
-0.44524407 -0.23984972 0.03885743 0.034648333 -5.2884054 -3.3470995 -3.512401 -3.945216
-1.1543854 -0.8724415 -0.68378955 -0.6809086 -3.9986553 -2.717251 -2.8522258 -3.0768266
0.40121824 -0.439234 0.13971476 0.085818455 -3.795774 -3.3383393 -2.4188538 -2.8122303
-0.8049438 -0.04976946 -0.38519672 -0.43008798 -0.38266575 -0.46483034 0.2583257 0.4155039
-2.3402789 -2.0818462 -1.7556031 -1.8640298 -2.7915378 -1.9116917 -1.7299471 -1.5975827
-1.3304802 -0.7378578 -1.1686962 -1.4046285 -1.5735725 -1.0894413 -0.63233465 -1.0037395
-0.43598026 -0.9637258 -0.73781264 -0.35124734 -0.91841424 -0.24087249 -0.053032517 -0.3402377
-0.36682874 -0.07743502 -0.49195945 -0.42298943 -0.30459765 -0.45627835 0.47674632 -0.1938107
-0.43069613 0.19502701 -0.4554947 0.45068634 -1.3881226 -0.7377237 -0.89895177 -0.9875748
-4.875019 -3.277102 -3.6248674 -4.102568 -3.8682923 -2.7500396 -2.3584518 -2.6729796
-1.3345629 -1.0629194 -1.0628917 -1.0757545 -4.1091127 -2.8688633 -2.510367 -2.6762133
-0.12114332 -0.20687616 -0.12760359 -0.41855776 0.34423465 -0.44547433 -0.26199532 -0.35826513
-0.4494928 -0.48424056 -0.27702487 0.28681582 -1.6046176 -1.1223619 -1.1016631 -1.1679578
-0.3442785 -0.14480597 -0.31489813 0.026287047 -1.7677745 -1.1911112 -2.0024736 -1.8898563
-2.6907449 -1.6654389 -1.8221172 -2.0713882 -4.9214644 -3.6868029 -3.490216 -4.1345916
0.19560343 -0.17839696 -0.031244433 -0.48064858 -0.47981268 -0.14708787 -0.3264258 -0.4623388
-0.22346416 -0.32630867 0.2403091 0.056676213 -0.17609514 0.22858755 -0.37889317 -0.11063839
-1.524649 -0.70277095 -0.9778695 -1.0349523 -2.718325 -2.0654428 -2.0366187 -1.9805524
-2.0431747 -1.4979817 -1.7826782 -1.5925694 0.24266304 -0.4195214 -0.154254 -0.24179462
-0.09615516 0.2827589 -0.4017536 -0.24360795 -2.9436004 -1.9856931 -1.9274652 -1.9399946
-6.638607 -4.3151975 -4.3323708 -4.6630626 0.08944356 -0.6173123 -0.24983251 -0.25164303
-0.21292043 -0.19727598 0.2573277 -0.36407855 -8.666376 -6.0508986 -6.158753 -6.1646643
-0.8503088 -1.019954 -0.4973752 -0.9173744 -0.22258657 -0.053355634 -0.28764206 -0.2804684
00000000: e75d abc0 fc5d 73c0 80bb 60c0 7498 82c0
00000010: 31ff 20be f049 243c be29 8abe b88d 7e3e
00000020: 6d91 96be c4a5 72be 6871 7a3e 2838 d8be
00000030: c8e4 c0bd 322a d5be 0496 4cbe b256 d9be
00000040: 2a66 1d3f 3cde 6a3e 693f c2be 6407 43bd
00000050: 5bf2 fdbe 0855 bbba 8196 db3d 831d 9f3e
00000060: 8e0a 14be 8c70 d0be 66a1 a6be b8ad 30bd
00000070: b641 2bc0 4963 ccbf c07f f0bf bc51 05c0
00000080: 8cdb 16bf c852 cabd 2c0e e2bd 18e4 3bbf
00000090: 5a2f 1b3e 568a cdbe b207 a1be 76eb acbe
000000a0: 03e4 d0be d487 cb3c 2eba 7d3e 8cbc b1bd
000000b0: 9c48 4bbf f10d 42bf df46 18bf 48c4 2dbf
000000c0: 5146 b5be 4ae2 8ebe 3f12 abbe 7873 143e
000000d0: f17b 2ebe b00f c4be bb25 8abe adad ce3e
000000e0: 0955 86be 6332 45be d442 29bf b842 aabe
000000f0: 6050 cfbf 5860 a1bf 2eff a0bf 85db 8cbf
00000100: 4841 b2c0 f419 84c0 010a 81c0 c640 7fc0
00000110: 3aa9 2dbf 69c9 41bf 1b3b 63bf 36b4 8abf
00000120: 08f7 e3be 2a9b 75be f828 1f3d 69eb 0d3d
00000130: 9e3a a9c0 e136 56c0 2ecb 60c0 6b7e 7cc0
00000140: e7c2 93bf 5358 5fbf d50c 2fbf 0750 2ebf
00000150: f8e9 7fc0 71e7 2dc0 de8a 36c0 baea 44c0
00000160: 7a6c cd3e 47e3 e0be 6311 0f3e 96c1 af3d
00000170: f6ed 72c0 5aa7 55c0 80ce 1ac0 95fb 33c0
00000180: cc10 4ebf 10db 4bbd 8138 c5be 7e34 dcbe
00000190: c4ec c3be 3efe edbe 4443 843e edbc d43e
000001a0: 21c7 15c0 f83c 05c0 9ab7 e0bf 8798 eebf
000001b0: 8ea8 32c0 50b2 f4bf e86e ddbf 977d ccbf
000001c0: 2d4d aabf 40e4 3cbf d697 95bf deca b3bf
000001d0: d36a c9bf d072 8bbf afe0 21bf 897a 80bf
000001e0: ce38 dfbe bcb6 76bf 4ae1 3cbf b1d6 b3be
000001f0: 321d 6bbf 47a7 76be a038 59bd a333 aebe
00000200: fad0 bbbe 4096 9ebd 1ce2 fbbe 1292 d8be
00000210: 39f4 9bbe 519d e9be 1818 f43e 5076 46be
00000220: 3484 dcbe 29b5 473e 9a36 e9be 5cc0 e63e
00000230: 00ae b1bf 76db 3cbf b421 66bf b4d1 7cbf
00000240: 2800 9cc0 0abc 51c0 d4fd 67c0 3d48 83c0
00000250: 1a92 77c0 a600 30c0 e0f0 16c0 1912 2bc0
00000260: f5d2 aabf be0d 88bf d60c 88bf 53b2 89bf
00000270: da7d 83c0 759b 37c0 daa9 20c0 1447 2bc0
00000280: fd19 f8bd 58d7 53be 84aa 02be 344d d6be
00000290: 863f b03e 3615 e4be 4024 86be 876e b7be
000002a0: ec23 e6be 61ee f7be 34d6 8dbe 86d9 923e
000002b0: 1c64 cdbf 8ea9 8fbf 4c03 8dbf a47f 95bf
000002c0: 4645 b0be 0448 14be 543a a1be ef57 d73c
000002d0: 6f46 e2bf 5576 98bf 8728 00c0 d0e6 f1bf
000002e0: 2a35 2cc0 1a2d d5bf 233b e9bf a091 04c0
000002f0: a37c 9dc0 94f4 6bc0 b35f 5fc0 934e 84c0
00000300: 444c 483e b1ad 36be 53f4 ffbc 9217 f6be
00000310: 02aa f5be 349e 16be 4821 a7be acb7 ecbe
00000320: cad3 64be ee11 a7be 9713 763e 5125 683d
00000330: 4952 34be db12 6a3e 49fe c1be 6196 e2bd
00000340: b327 c3bf cce8 33bf a855 7abf 5179 84bf
00000350: 09f9 2dc0 3730 04c0 f657 02c0 be82 fdbf
00000360: 60c3 02c0 ddbd bfbf cd2e e4bf 50d9 cbbf
00000370: a97c 783e 82cb d6be c3f4 1dbe 0299 77be
00000380: ffec c4bd c6c5 903e a6b2 cdbe 5d74 79be
00000390: f363 3cc0 312b febf 2eb7 f6bf be51 f8bf
000003a0: 786f d4c0 1916 8ac0 c8a2 8ac0 cf37 95c0
000003b0: 2f2e b73d 2e08 1ebf 18d4 7fbe 5bd7 80be
000003c0: d007 5abe b702 4abe 75c0 833e 8168 babe
000003d0: 7aa9 0ac1 f6a0 c1c0 8114 c5c0 ee44 c5c0
000003e0: d6ad 59bf da8d 82bf f6a7 febe 0cd9 6abf
000003f0: bced 63be 708b 5abd d245 93be 8e99 8fbe

0.bias f4 [256]
-0.8033272 -0.19719948 0.42244685 -0.2997865 -0.34783062 -0.2741772 0.3583726 -0.40196282
-0.14876735 -0.4209632 -0.34468472 -0.615713 0.31632268 -0.31335998 -0.33717832 -0.21291624
-0.82444227 0.21062529 0.17068475 -0.4427775 -0.5782519 -1.00841 0.48748314 -0.6938278
-0.36154342 0.49061283 -0.8049612 -0.035233587 -0.61816084 -0.5169727 0.12148766 -0.19478622
0.18833494 0.17018922 -0.46359092 0.27721807 -0.4145233 -0.08960757 -0.51974905 -0.3545937
0.19261621 0.0097836545 0.13386554 0.079464436 -0.15391642 -0.028458565 -0.646207 -0.5678012
0.06598847 0.034475982 0.35703498 0.4585651 -0.46220753 -0.761477 -0.4292037 -0.42691985
0.39378262 -0.065923005 -0.4384512 0.043557465 -0.38793468 -0.9454211 -0.10323577 -0.1399265
-0.5147485 -0.08243295 -0.4556337 0.15157363 0.073620334 0.101503134 -0.79897994 -0.07907957
-0.33336276 -0.3223608 0.2692786 -1.3335351 -0.5479946 -1.5994906 0.3948229 -0.9601668
0.09891156 -0.3703041 -0.83474696 0.29960606 -0.4471918 -0.57807946 -0.50980914 -0.4021058
0.24107061 0.45741317 -0.88127685 -0.33378556 -0.4715153 -0.26302472 0.0020887237 -1.004116
-0.1712361 -0.4595472 0.040297113 -0.13164423 -0.37082767 -0.050939362 -0.41999188 -0.17221321
-0.42216888 -0.52364385 0.13547742 0.13557719 -0.31456903 -0.98740077 -0.477967 -0.31275007
-0.14097776 0.38517788 -0.4964713 -0.08584474 -0.020509975 -0.36923873 -0.04504487 -0.3199937
0.09502891 -0.32525036 -0.11868572 -0.28859565 -0.17612466 -0.06974858 -0.2650655 0.0063471296
-0.45849618 -0.6588086 -0.21340781 -0.31976905 -0.17746112 -1.5263865 0.3106882 -0.86974776
0.36308607 -0.17719318 -0.032407075 -0.37639806 -0.18276493 -0.10966533 0.3372612 -0.285539
-0.5675102 -0.3935272 0.05723983 -0.31494772 -0.21503061 -0.3943697 0.11885079 0.35098928
-0.7439605 0.43094745 -0.70520246 -1.0933765 -1.1111058 -0.07086111 -0.19777851 0.34090018
-0.26438046 -0.3478052 0.18466657 -0.5404371 -0.58037263 0.31130838 -0.4271447 -0.8137547
-0.18922193 -0.75338924 -0.26488638 -0.1882132 -0.42201906 -0.50497484 -0.49814868 -0.19302645
-0.6353958 -0.4993825 -0.77711916 0.2550403 0.44589886 0.40435228 -0.73543954 0.015466392
-0.27230924 0.18516952 0.27138877 -0.08972219 0.022071362 -0.41565648 -0.0619987 0.35115498
-0.20268288 -1.0309756 0.18035701 -0.6401984 -1.0018957 -0.9180699 -0.1925066 -0.093620926
0.17787836 -0.045090545 -0.44472346 -0.14419898 -0.17427394 -0.4671089 -0.2950217 -0.10023908
-0.9670274 0.37877768 -0.03154491 -1.0910025 -0.4875005 -0.2939161 -0.7624918 -0.34619713
-0.05274938 -0.49802604 -0.01048708 -1.2051275 0.13502124 -1.2502387 -0.018566519 -0.052667946
-0.3444546 0.23400524 -0.24851306 -0.33174253 -0.49050492 -0.40170753 -0.36048892 -0.2907767
0.15966108 0.032915372 -0.3801111 -0.35695168 -0.41637644 0.2748706 0.25721282 -0.7352636
0.110348664 0.0024905056 0.3581109 -0.16143742 -0.011147285 0.17420734 0.43424928 -0.03185028
-0.23240775 -0.98673785 0.14101726 0.1935517 0.23282398 -0.42274523 0.05345349 -0.11757395
00000000: daa6 4dbf a9ee 49be f44a d83e 9e7d 99be
00000010: db16 b2be f460 8cbe 9d7c b73e 12ce cdbe
00000020: 7856 18be 7d88 d7be 847a b0be 5e9f 1dbf
00000030: 0cf5 a13e b870 a0be a3a2 acbe b706 5abe
00000040: a60e 53bf 28ae 573e fcc7 2e3e bcb3 e2be
00000050: 5108 14bf 9413 81bf 6497 f93e b39e 31bf
00000060: 381c b9be 9b31 fb3e f011 4ebf 1851 10bd
00000070: ca3f 1ebf 5358 04bf 86ce f83d 0a76 47be
00000080: e0da 403e 1546 2e3e ca5b edbe 87ef 8d3e
00000090: 663c d4be 2c84 b7bd 460e 05bf 4e8d b5be
000000a0: 2f3d 453e 9f4b 203c 0c14 093e 40be a23d
000000b0: 449c 1dbe f021 e9bc d26d 25bf 6b5b 11bf
000000c0: f724 873d b036 0d3d 4acd b63e 0bc9 ea3e
000000d0: 77a6 ecbe 28f0 42bf 96c0 dbbe 3d95 dabe
000000e0: e09d c93e a402 87bd ad7c e0be 5069 323d
000000f0: 609f c6be 1e07 72bf 466d d3bd e448 0fbe
00000100: 8fc6 03bf 9bd2 a8bd d248 e9be 1e36 1b3e
00000110: 42c6 963d e0e0 cf3d f389 4cbf 78f4 a1bd
00000120: 86ae aabe 7a0c a5be e2de 893e 47b1 aabf
00000130: 6049 0cbf 1cbc ccbf 3a26 ca3e 7ecd 75bf
00000140: 2592 ca3d 8098 bdbe fab1 55bf f765 993e
00000150: 53f6 e4be 04fd 13bf da82 02bf d0e0 cdbe
00000160: 37db 763e 0f32 ea3e 5c9b 61bf f1e5 aabe
00000170: 746a f1be 2dab 86be f8e2 083b e086 80bf
00000180: 8458 2fbe c549 ebbe 960e 253d bfcd 06be
00000190: 20dd bdbe cba5 50bd 2d09 d7be a958 30be
000001a0: 8526 d8be 860d 06bf 98ba 0a3e bfd4 0a3e
000001b0: 310f a1be 4cc6 7cbf 17b8 f4be c720 a0be
000001c0: 795c 10be 0936 c53e 7c31 febe 5ecf afbd
000001d0: 8904 a8bc dc0c bdbe f880 38bd 37d6 a3be
000001e0: 849e c23d 3787 a6be 8011 f3bd cfc2 93be
000001f0: 065a 34be 58d8 8ebd aab6 87be 95fb cf3b
00000200: 03c0 eabe aea7 28bf 9487 5abe c5b8 a3be
00000210: 5eb8 35be a260 c3bf 8612 9f3e caa7 5ebf
00000220: 6be6 b93e 2172 35be 48bd 04bd 3fb7 c0be
00000230: bb26 3bbe 3798 e0bd 80ad ac3e 2b32 92be
00000240: 5948 11bf 667c c9be 5074 6a3d d440 a1be
00000250: fc30 5cbe d3ea c9be 0b68 f33d deb4 b33e
00000260: 3274 3ebf 25a5 dc3e 2688 34bf c3f3 8bbf
00000270: b738 8ebf a11f 91bd 7386 4abe 788a ae3e
00000280: e05c 87be 8613 b2be 3c19 3d3e 165a 0abf
00000290: 4d93 14bf d063 9f3e b6b2 dabe 3a52 50bf
000002a0: 65c3 41be 1ede 40bf 309f 87be f6ba 40be
000002b0: e212 d8be 0846 01bf 580d ffbe baa8 45be
000002c0: 4da9 22bf 10af ffbe 48f1 46bf a494 823e
000002d0: db4c e43e 4307 cf3e c445 3cbf c066 7d3c
000002e0: 1e6c 8bbe 149d 3d3e 78f3 8a3e 44c0 b7bd
000002f0: 00cf b43c edd0 d4be 59f2 7dbd 96ca b33e
00000300: 1a8c 4fbe 02f7 83bf 82af 383e 0be4 23bf
00000310: 1e3e 80bf a106 6bbf 7320 45be 54bc bfbd
00000320: bf25 363e ddb0 38bd cbb2 e3be e6a8 13be
00000330: de74 32be e628 efbe 160d 97be 264a cdbd
00000340: 1c8f 77bf 26ef c13e 3c35 01bd f8a5 8bbf
00000350: aa99 f9be 2c7c 96be aa32 43bf c040 b1be
00000360: bc0f 58bd 45fd febe 00d2 2bbc 9e41 9abf
00000370: 0243 0a3e d207 a0bf d018 98bc 58ba 57bd
00000380: 5a5c b0be 129f 6f3e 357a 7ebe 28da a9be
00000390: 7623 fbbe 9cac cdbe 0192 b8be afe0 94be
000003a0: 327e 233e 45d2 063d ec9d c2be 5fc2 b6be
000003b0: 4b2f d5be d7bb 8c3e 66b1 833e 3c3a 3cbf
000003c0: 7bfe e13d c037 233b 505a b73e da4f 25be
000003d0: 1aa3 36bc 6963 323e ec55 de3e 7075 02bd
000003e0: 4cfc 6dbe da9a 7cbf d466 103e 6b32 463e
000003f0: 6969 6e3e 1072 d8be 0cf2 5a3d 9cca f0bd

2.weight f4 [4, 256]
0.14155343 -0.014081933 -0.05288345 0.06138225 0.04077731 -0.017103728 -0.053750344 -0.018005863
0.16492249 0.039227016 0.042942002 0.016778983 -0.018312156 -0.023522807 0.030237153 -0.03534933
0.0050218105 0.0023872852 0.030807177 0.41661826 0.084701255 0.16398671 0.14674881 0.32747242
0.12792884 0.064352356 0.19323958 0.0804362 0.29436618 0.20547567 0.042009525 0.18852812
-0.05819343 -0.01672251 0.035291646 0.20458387 0.15462798 0.118465014 0.13190664 0.12035759
-0.014318147 -0.021288691 0.057652358 -0.04796771 0.051300026 0.21907352 0.087908 0.33996344
0.03449948 -0.047840565 0.016067326 -0.00841157 0.01920231 0.07767998 0.07866916 0.006026336
0.018418191 0.14320977 0.47959784 0.0880789 0.04274817 0.24715161 0.13194178 -0.010057434
0.029828027 0.05601472 -0.02098409 0.083826676 -0.046827704 0.16900235 0.26472464 0.08116173
-0.03305373 -0.050958678 0.06257612 0.34583512 0.16962273 0.35333547 0.18067732 0.3024903
-0.040681772 0.11857173 0.32845357 0.06759736 0.015391175 -0.058701925 0.0955756 0.015576266
-0.036302026 -0.03792931 0.33471167 0.006488358 0.02052074 0.17755091 0.0923449 0.08019602
0.018572167 0.4527732 -0.039911754 0.20321018 -0.0053097517 0.07196751 0.11174436 0.114361025
0.07964091 0.04301059 0.036814805 0.028671999 0.0115080755 0.41647196 0.059862185 0.13383013
-0.00039433315 0.25960463 -0.03210134 0.2467597 0.029650193 0.053147957 0.098287724 0.018785689
0.07307336 -0.04542794 0.03294731 -0.04886754 0.03431633 0.089698404 0.0066630617 0.017872257
0.07913445 0.20432183 0.027663078 0.070377775 0.23309402 0.35330918 0.10682805 0.143408
-0.010490218 0.07176608 0.2642363 0.055433977 -0.0069810855 -0.030953765 0.007308105 -0.015490871
0.18865618 0.011451259 0.01923871 -0.005800157 -0.02050922 -0.018803686 -0.043036576 0.003281209
0.36063936 0.08825289 -0.06162431 0.16952968 0.013021886 0.049379926 0.06880782 0.036314856
-0.015492281 -0.032423124 -0.033981495 0.047827214 0.09538904 0.03460659 -0.023798838 0.43444452
-0.02793768 0.13556142 -0.04458944 0.046710726 0.044101976 0.12372688 0.15945089 -0.01037547
0.17868203 -0.0006430298 0.082743004 0.032627165 0.001457259 0.043772325 0.40322524 -0.03745286
0.3494712 0.007278588 -0.0042852587 0.1161211 -0.036111757 0.13956966 0.061795246 0.048808035
0.20740572 0.48983723 0.0115155615 0.07346264 0.18286365 0.11811757 0.028149525 0.042323086
-0.036761217 -0.008018613 0.47514504 0.04679501 0.019257613 0.07263166 0.04960067 -0.05351753
0.3276269 0.04971288 -0.038531817 0.16502056 0.10604502 -0.029016763 0.06549097 0.12912121
0.0065033846 0.13207701 -0.02782803 -0.007498592 0.13362208 0.2012903 -0.015236139 0.3119428
-0.029833594 0.25427467 0.11506949 0.02283974 0.13176167 0.28659144 0.00975962 -0.04672591
0.10507409 -0.048320007 0.021283157 0.26550376 0.17929335 0.0033230702 0.2303056 0.0066274107
0.050260574 0.17368925 0.009422742 0.15910685 0.025341257 0.04038776 0.07163848 0.038566515
0.04298731 0.52933365 0.022995373 0.12624086 0.0019904578 -0.011776003 -0.0072862897 -0.015999308
00000000: 62f3 103e e8b7 66bc 519c 58bd f46b 7b3d
00000010: 1c06 273d 1e1d 8cbc 5229 5cbd 0881 93bc
00000020: 71e1 283e 82ac 203d f4e3 2f3d 1474 893c
00000030: 6003 96bc e7b2 c0bc e8b3 f73c 76ca 10bd
00000040: 008e a43b 0074 1c3b 555f fc3c fd4e d53e
00000050: da77 ad3d 22ec 273e 5245 163e 77aa a73e
00000060: c7ff 023e 2bcb 833d 99e0 453e bcbb a43d
00000070: 2ab7 963e 3768 523e 2e12 2c3d 840d 413e
00000080: 3c5c 6ebd a5fd 88bc f98d 103d 6f7e 513e
00000090: cc56 1e3e c99d f23d 8912 073e 0a7e f63d
000000a0: a996 6abc 9f65 aebc e124 6c3d ca79 44bd
000000b0: fa1f 523d cf54 603e 1c09 b43d b00f ae3e
000000c0: 544f 0d3d 78f4 43bd a09f 833c afd0 09bc
000000d0: 2a4e 9d3c ae16 9f3d 4c1d a13d 9278 c53b
000000e0: bfe1 963c 95a5 123e d98d f53e b662 b43d
000000f0: b518 2f3d 5015 7d3e bf1b 073e f0c7 24bc
00000100: e859 f43c b16f 653d d4e6 abbc 52ad ab3d
00000110: 68ce 3fbd f40e 2d3e fd89 873e 1f38 a63d
00000120: 5963 07bd 0cba 50bd e927 803d 4d11 b13e
00000130: 95b1 2d3e 63e8 b43e 7a03 393e 02e0 9a3e
00000140: eea1 26bd bcd5 f23d 112b a83e 7c70 8a3d
00000150: 442b 7c3c 6e71 70bd 24bd c33d 9833 7f3c
00000160: 6fb1 14bd c45b 1bbd 545f ab3e 4b9c d43b
00000170: 1c1b a83c e8cf 353e 531f bd3d d03d a43d
00000180: a824 983c e4d1 e73e 827a 23bd 5416 503e
00000190: 6dfd adbb b463 933d 3ada e43d 1d36 ea3d
000001a0: c61a a33d df2b 303d 1fcb 163d 8ae1 ea3c
000001b0: 5e8c 3c3c d03b d53e 0d32 753d c40a 093e
000001c0: 80be ceb9 e6ea 843e b27c 03bd 93ae 7c3e
000001d0: f6e4 f23c acb1 593d 134b c93d 72e4 993c
000001e0: 7ca7 953d a612 3abd c2f3 063d 5429 48bd
000001f0: 488f 0c3d ccb3 b73d d055 da3b d768 923c
00000200: 3e11 a23d be39 513e ae9d e23c 3922 903d
00000210: 33b0 6e3e f1e4 b43e aac8 da3d 8cd9 123e
00000220: 2adf 2bbc 18fa 923d fb49 873e bd0e 633d
00000230: 97c1 e4bb c092 fdbc d478 ef3b 6ccd 7dbc
00000240: 162f 413e 109e 3b3c 809a 9d3c 3e0f bebb
00000250: f402 a8bc 300a 9abc 1f47 30bd 8d09 573b
00000260: b9a5 b83e eebd b43d c669 7cbd 3099 2d3e
00000270: c059 553c 9b42 4a3d 1deb 8c3d e3be 143d
00000280: 56d3 7dbc 1cce 04bd 2e30 0bbd 78e6 433d
00000290: 545b c33d a4bf 0d3d c8f5 c2bc 836f de3e
000002a0: 90dd e4bc 9dd0 0a3e 6ba3 36bd bf53 3f3d
000002b0: 46a4 343d 8564 fd3d 1847 233e e0fd 29bc
000002c0: 6cf8 363e 0091 28ba 2a75 a93d 10a4 053d
000002d0: 7f01 bf3a 9c4a 333d 8a73 ce3e 2c68 19bd
000002e0: e4ed b23e 3981 ee3b 5b6b 8cbb e6d0 ed3d
000002f0: ece9 13bd 59eb 0e3e 031d 7d3d efea 473d
00000300: 2a62 543e f2cb fa3e c4ab 3c3c 9573 963d
00000310: 9c40 3b3e a0e7 f13d d599 e63c f95a 2d3d
00000320: ee92 16bd 8060 03bc 3646 f33e 20ac 3f3d
00000330: 24c2 9d3c e8bf 943d 122a 4b3d 3335 5bbd
00000340: b7be a73e bc9f 4b3d 8ad3 1dbd 26fb 283e
00000350: 222e d93d 90b4 edbc 2120 863d 5a38 043e
00000360: 581a d53b 323f 073e 9cf7 e3bc c0b6 f5bb
00000370: 3ad4 083e 0b1f 4e3e 00a1 79bc f7b6 9f3e
00000380: 9565 f4bc 4a30 823e 8ea9 eb3d 681a bb3c
00000390: 88ec 063e 1dbc 923e d0e6 1f3c ab63 3fbd
000003a0: 1631 d73d 33eb 45bd 045a ae3c 1cf0 873e
000003b0: ad98 373e dec7 593b 3bd5 6b3e c02a d93b
000003c0: 08de 4d3d 98db 313e d861 1a3c e8ec 223e
000003d0: 7898 cf3c a36d 253d 32b7 923d ecf7 1d3d
000003e0: 7613 303d 6982 073f cb60 bc3c 4945 013e
000003f0: 5772 023b 23f0 40bc d4c1 eebb fb10 83bc

2.bias f4 [4]
0.27370983 0.7228154 0.40459588 0.32672042
00000000: b223 8c3e 6e0a 393f 3127 cf3e e647 a73e
